…
     "iopub.status.busy": "2025-04-25T08:31:52.069888Z",
     "iopub.status.idle": "2025-04-25T08:31:52.124581Z",
     "shell.execute_reply": "2025-04-25T08:31:52.124012Z",
     "shell.execute_reply.started": "2025-04-25T08:31:52.070116Z"
    },
    "trusted": true
   },
   "outputs": [
    {
     "name": "stdout",
     "output_type": "stream",
     "text": [
      "----------------------------------------------------------------\n",
      "        Layer (type)               Output Shape         Param #\n",
      "================================================================\n",
      "            Linear-1              [-1, 1, 4096]     102,764,544\n",
      "              ReLU-2              [-1, 1, 4096]               0\n",
      "           Dropout-3              [-1, 1, 4096]               0\n",
      "            Linear-4              [-1, 1, 4096]      16,781,312\n",
      "              ReLU-5              [-1, 1, 4096]               0\n",
      "           Dropout-6              [-1, 1, 4096]               0\n",
      "            Linear-7                [-1, 1, 10]          40,970\n",
      "================================================================\n",
      "Total params: 119,586,826\n",
      "Trainable params: 119,586,826\n",
      "Non-trainable params: 0\n",
      "----------------------------------------------------------------\n",
      "Input size (MB): 0.10\n",
      "Forward/backward pass size (MB): 0.19\n",
      "Params size (MB): 456.19\n",
      "Estimated Total Size (MB): 456.47\n",
…
     "iopub.status.busy": "2025-04-25T08:36:45.608241Z",
     "iopub.status.idle": "2025-04-25T08:36:45.615031Z",
     "shell.execute_reply": "2025-04-25T08:36:45.614309Z",
     "shell.execute_reply.started": "2025-04-25T08:36:45.608952Z"
    },
    "trusted": true
   },
   "outputs": [
    {
     "name": "stdout",
     "output_type": "stream",
     "text": [
      "----------------------------------------------------------------\n",
      "        Layer (type)               Output Shape         Param #\n",
      "================================================================\n",
      "           Dropout-1              [-1, 1, 9216]               0\n",
      "            Linear-2              [-1, 1, 4096]      37,752,832\n",
      "              ReLU-3              [-1, 1, 4096]               0\n",
      "           Dropout-4              [-1, 1, 4096]               0\n",
      "            Linear-5              [-1, 1, 4096]      16,781,312\n",
      "              ReLU-6              [-1, 1, 4096]               0\n",
      "            Linear-7                [-1, 1, 10]          40,970\n",
      "================================================================\n",
      "Total params: 54,575,114\n",
      "Trainable params: 54,575,114\n",
      "Non-trainable params: 0\n",
      "----------------------------------------------------------------\n",
      "Input size (MB): 0.04\n",
      "Forward/backward pass size (MB): 0.23\n",
      "Params size (MB): 208.19\n",
      "Estimated Total Size (MB): 208.45\n",
…
     "iopub.status.busy": "2025-04-25T08:39:01.641140Z",
     "iopub.status.idle": "2025-04-25T08:39:01.702976Z",
     "shell.execute_reply": "2025-04-25T08:39:01.702316Z",
     "shell.execute_reply.started": "2025-04-25T08:39:01.641691Z"
    },
    "trusted": true
   },
   "outputs": [
    {
     "name": "stdout",
     "output_type": "stream",
     "text": [
      "----------------------------------------------------------------\n",
      "        Layer (type)               Output Shape         Param #\n",
      "================================================================\n",
      "            Conv2d-1         [-1, 64, 224, 224]           1,792\n",
      "         MaxPool2d-2         [-1, 64, 112, 112]               0\n",
      "       BatchNorm2d-3         [-1, 64, 112, 112]             128\n",
      "              ReLU-4         [-1, 64, 112, 112]               0\n",
      "           Dropout-5         [-1, 64, 112, 112]               0\n",
      "            Conv2d-6         [-1, 64, 112, 112]          36,928\n",
      "         MaxPool2d-7           [-1, 64, 56, 56]               0\n",
      "       BatchNorm2d-8           [-1, 64, 56, 56]             128\n",
      "              ReLU-9           [-1, 64, 56, 56]               0\n",
      "          Dropout-10           [-1, 64, 56, 56]               0\n",
      "           Conv2d-11          [-1, 128, 56, 56]          73,856\n",
      "        MaxPool2d-12          [-1, 128, 28, 28]               0\n",
      "      BatchNorm2d-13          [-1, 128, 28, 28]             256\n",
      "             ReLU-14          [-1, 128, 28, 28]               0\n",
      "          Dropout-15          [-1, 128, 28, 28]               0\n",
      "           Conv2d-16          [-1, 128, 28, 28]         147,584\n",
      "        MaxPool2d-17          [-1, 128, 14, 14]               0\n",
      "      BatchNorm2d-18          [-1, 128, 14, 14]             256\n",
      "             ReLU-19          [-1, 128, 14, 14]               0\n",
      "          Dropout-20          [-1, 128, 14, 14]               0\n",
      "           Conv2d-21          [-1, 256, 14, 14]         295,168\n",
      "        MaxPool2d-22            [-1, 256, 7, 7]               0\n",
      "      BatchNorm2d-23            [-1, 256, 7, 7]             512\n",
      "             ReLU-24            [-1, 256, 7, 7]               0\n",
      "          Dropout-25            [-1, 256, 7, 7]               0\n",
      "           Conv2d-26            [-1, 256, 7, 7]         590,080\n",
      "        MaxPool2d-27            [-1, 256, 3, 3]               0\n",
      "      BatchNorm2d-28            [-1, 256, 3, 3]             512\n",
      "             ReLU-29            [-1, 256, 3, 3]               0\n",
      "          Dropout-30            [-1, 256, 3, 3]               0\n",
      "          Flatten-31                 [-1, 2304]               0\n",
      "           Linear-32                  [-1, 512]       1,180,160\n",
      "      BatchNorm1d-33                  [-1, 512]           1,024\n",
      "             ReLU-34                  [-1, 512]               0\n",
      "           Linear-35                  [-1, 256]         131,328\n",
      "      BatchNorm1d-36                  [-1, 256]             512\n",
      "             ReLU-37                  [-1, 256]               0\n",
      "           Linear-38                   [-1, 10]           2,570\n",
      "================================================================\n",
      "Total params: 2,462,794\n",
      "Trainable params: 2,462,794\n",
      "Non-trainable params: 0\n",
      "----------------------------------------------------------------\n",
      "Input size (MB): 0.57\n",
      "Forward/backward pass size (MB): 69.87\n",
      "Params size (MB): 9.39\n",
      "Estimated Total Size (MB): 79.84\n",
…
